…
15T18:10:26.787842Z","shell.execute_reply":"2024-04-15T18:10:38.101785Z"},"trusted":true},"execution_count":7,"outputs":[{"name":"stdout","text":"Downloading data from https://github.com/faustomorales/vit-keras/releases/download/dl/ViT-B_32_imagenet21k+imagenet2012.npz\n353255424/353253686 [==============================] - 2s 0us/step\nModel: \"vision_transformer\"\n_________________________________________________________________\nLayer (type)                 Output Shape              Param #   \n=================================================================\nvit-b32 (Functional)         (None, 768)               87455232  \n_________________________________________________________________\nflatten (Flatten)            (None, 768)               0         \n_________________________________________________________________\nbatch_normalization (BatchNo (None, 768)               3072      \n_________________________________________________________________\ndense (Dense)                (None, 11)                8459      \n_________________________________________________________________\nbatch_normalization_1 (Batch (None, 11)                44        \n_________________________________________________________________\ndense_1 (Dense)              (None, 5)                 60        \n=================================================================\nTotal params: 87,466,867\nTrainable params: 87,465,309\nNon-trainable params: 1,558\n_________________________________________________________________\n","output_type":"stream"}]},{"cell_type":"markdown","source":"# Training the Model","metadata":{}},{"cell_type":"code","source":"STEP_SIZE_TRAIN = train_gen.n // train_gen
…
